…
  SAVE_DIR: ./checkpoints/edge_v2/UIEB/freq_0_edge_0.01_ssim_0.9_mp
  TRAIN_DIR: ./image_dirs/UIEB/train
  VAL_AFTER_EVERY: 1
  VAL_DIR: ./image_dirs/UIEB/val
  WEIGHT: 
VERBOSE: True
WANDB:
  
==================================================
Model Detailed Summary:
--------------------------------------------------
====================================================================================================
Layer (type:depth-idx)                             Output Shape              Param #
====================================================================================================
EdgeModel_V2                                       [1, 3, 256, 256]          --
├─SCBackbone: 1-1                                  [1, 64, 256, 256]         --
│    └─Sequential: 2-1                             [1, 64, 256, 256]         --
│    │    └─ReflectionPaddingConv: 3-1             [1, 64, 256, 256]         9,472
│    │    └─GELU: 3-2                              [1, 64, 256, 256]         --
│    │    └─ReflectionPaddingConv: 3-3             [1, 64, 256, 256]         36,928
│    │    └─GELU: 3-4                              [1, 64, 256, 256]         --
│    └─SCEncoderBlock: 2-2                         [1, 64, 256, 256]         --
│    │    └─Sequential: 3-5                        [1, 64, 256, 256]         36,928
│    │    └─SCEdgeDetectionModule: 3-6             [1, 64, 256, 256]         14,080
│    │    └─SCAttention: 3-7                       [1, 64, 256, 256]         5,291
│    │    └─Dropout: 3-8                           [1, 64, 256, 256]         --
│    │    └─Sequential: 3-9                        [1, 64, 256, 256]         36,928
│    │    └─Identity: 3-10                         [1, 64, 256, 256]         --
│    └─MaxPool2d: 2-3                              [1, 64, 128, 128]         --
│    └─SCEncoderBlock: 2-4                         [1, 128, 128, 128]        --
│    │    └─Sequential: 3-11                       [1, 128, 128, 128]        73,856
│    │    └─SCEdgeDetectionModule: 3-12            [1, 128, 128, 128]        52,736
│    │    └─SCAttention: 3-13                      [1, 128, 128, 128]        20,723
│    │    └─Dropout: 3-14                          [1, 128, 128, 128]        --
│    │    └─Sequential: 3-15                       [1, 128, 128, 128]        147,584
│    │    └─ReflectionPaddingConv: 3-16            [1, 128, 128, 128]        8,320
│    └─MaxPool2d: 2-5                              [1, 128, 64, 64]          --
│    └─SCEncoderBlock: 2-6                         [1, 256, 64, 64]          --
│    │    └─Sequential: 3-17                       [1, 256, 64, 64]          295,168
│    │    └─SCEdgeDetectionModule: 3-18            [1, 256, 64, 64]          203,776
│    │    └─SCAttention: 3-19                      [1, 256, 64, 64]          82,307
│    │    └─Dropout: 3-20                          [1, 256, 64, 64]          --
│    │    └─Sequential: 3-21                       [1, 256, 64, 64]          590,080
│    │    └─ReflectionPaddingConv: 3-22            [1, 256, 64, 64]          33,024
│    └─MaxPool2d: 2-7                              [1, 256, 32, 32]          --
│    └─SCEncoderBlock: 2-8                         [1, 512, 32, 32]          --
│    │    └─Sequential: 3-23                       [1, 512, 32, 32]          1,180,160
│    │    └─SCEdgeDetectionModule: 3-24            [1, 512, 32, 32]          800,768
│    │    └─SCAttention: 3-25                      [1, 512, 32, 32]          328,355
│    │    └─Dropout: 3-26                          [1, 512, 32, 32]          --
│    │    └─Sequential: 3-27                       [1, 512, 32, 32]          2,359,808
│    │    └─ReflectionPaddingConv: 3-28            [1, 512, 32, 32]          131,584
│    └─SCDecoderBlock: 2-9                         [1, 256, 64, 64]          --
│    │    └─Upsample: 3-29                         [1, 512, 64, 64]          --
│    │    └─Sequential: 3-30                       [1, 512, 64, 64]          2,359,808
│    │    └─Sequential: 3-31                       [1, 768, 64, 64]          590,592
│    │    └─SCAttention: 3-32                      [1, 768, 64, 64]          738,243
│    │    └─Sequential: 3-33                       [1, 256, 64, 64]          2,359,808
│    └─SCDecoderBlock: 2-10                        [1, 128, 128, 128]        --
│    │    └─Upsample: 3-34                         [1, 256, 128, 128]        --
│    │    └─Sequential: 3-35                       [1, 256, 128, 128]        590,080
│    │    └─Sequential: 3-36                       [1, 384, 128, 128]        147,840
│    │    └─SCAttention: 3-37                      [1, 384, 128, 128]        184,851
│    │    └─Sequential: 3-38                       [1, 128, 128, 128]        590,080
│    └─SCDecoderBlock: 2-11                        [1, 64, 256, 256]         --
│    │    └─Upsample: 3-39                         [1, 128, 256, 256]        --
│    │    └─Sequential: 3-40                       [1, 128, 256, 256]        147,584
│    │    └─Sequential: 3-41                       [1, 192, 256, 256]        37,056
│    │    └─SCAttention: 3-42                      [1, 192, 256, 256]        46,395
│    │    └─Sequential: 3-43                       [1, 64, 256, 256]         147,584
│    └─Sequential: 2-12                            [1, 3, 256, 256]          --
│    │    └─ReflectionPaddingConv: 3-44            [1, 64, 256, 256]         36,928
│    │    └─GELU: 3-45                             [1, 64, 256, 256]         --
│    │    └─ReflectionPaddingConv: 3-46            [1, 3, 256, 256]          1,731
│    │    └─Sigmoid: 3-47                          [1, 3, 256, 256]          --
====================================================================================================
Total params: 14,426,456
Trainable params: 14,426,456
Non-trainable params: 0
Total mult-adds (G): 98.76
====================================================================================================
Input size (MB): 0.79
Forward/backward pass size (MB): 1160.61
Params size (MB): 57.71
Estimated Total Size (MB): 1219.10
…
