Model Detailed Summary:
--------------------------------------------------
=========================================================================================================
Layer (type:depth-idx)                                  Output Shape              Param #
=========================================================================================================
EdgeModel_V3                                            [1, 3, 256, 256]          --
├─ColorBalancePrior: 1-1                                [1, 3, 256, 256]          --
│    └─NAFBlock: 2-1                                    [1, 3, 256, 256]          6
│    │    └─LayerNorm2d: 3-1                            [1, 3, 256, 256]          6
│    │    └─Conv2d: 3-2                                 [1, 6, 256, 256]          24
│    │    └─Conv2d: 3-3                                 [1, 6, 256, 256]          60
│    │    └─SimpleGate: 3-4                             [1, 3, 256, 256]          --
│    │    └─Sequential: 3-5                             [1, 3, 1, 1]              12
│    │    └─Conv2d: 3-6                                 [1, 3, 256, 256]          12
│    │    └─Identity: 3-7                               [1, 3, 256, 256]          --
│    │    └─LayerNorm2d: 3-8                            [1, 3, 256, 256]          6
│    │    └─Conv2d: 3-9                                 [1, 6, 256, 256]          24
│    │    └─SimpleGate: 3-10                            [1, 3, 256, 256]          --
│    │    └─Conv2d: 3-11                                [1, 3, 256, 256]          12
│    │    └─Identity: 3-12                              [1, 3, 256, 256]          --
├─ReflectionFeatureContextualizer: 1-2                  [1, 6, 256, 256]          --
│    └─ReflectionPatchEmbed: 2-2                        [1, 48, 256, 256]         --
│    │    └─ReflectionPad2d: 3-13                       [1, 3, 258, 258]          --
│    │    └─Conv2d: 3-14                                [1, 48, 256, 256]         1,296
│    └─ReflectionPatchEmbed: 2-3                        [1, 48, 256, 256]         --
│    │    └─ReflectionPad2d: 3-15                       [1, 3, 258, 258]          --
│    │    └─Conv2d: 3-16                                [1, 48, 256, 256]         1,296
│    └─MAQ: 2-4                                         [1, 48, 256, 256]         --
│    │    └─CrossAttentionTransformer: 3-17             [1, 48, 256, 256]         43,068
│    │    └─CrossAttentionTransformer: 3-18             [1, 48, 256, 256]         43,068
│    │    └─SelfAttentionTransformer: 3-19              [1, 48, 256, 256]         32,171
│    │    └─Sequential: 3-20                            [1, 192, 256, 256]        103,872
│    │    └─Sequential: 3-21                            [1, 48, 256, 256]         9,360
│    └─MAQ: 2-5                                         [1, 48, 256, 256]         --
│    │    └─CrossAttentionTransformer: 3-22             [1, 48, 256, 256]         43,068
│    │    └─CrossAttentionTransformer: 3-23             [1, 48, 256, 256]         43,068
│    │    └─SelfAttentionTransformer: 3-24              [1, 48, 256, 256]         32,171
│    │    └─Sequential: 3-25                            [1, 192, 256, 256]        103,872
│    │    └─Sequential: 3-26                            [1, 48, 256, 256]         9,360
│    └─Aggreation: 2-6                                  [1, 48, 256, 256]         --
│    │    └─SelfAttention: 3-27                         [1, 96, 256, 256]         2,412
│    │    └─ConvLayer: 3-28                             [1, 48, 256, 256]         41,521
│    └─MAQ: 2-7                                         [1, 48, 256, 256]         --
│    │    └─CrossAttentionTransformer: 3-29             [1, 48, 256, 256]         43,068
│    │    └─CrossAttentionTransformer: 3-30             [1, 48, 256, 256]         43,068
│    │    └─SelfAttentionTransformer: 3-31              [1, 48, 256, 256]         32,171
│    │    └─Sequential: 3-32                            [1, 192, 256, 256]        103,872
│    │    └─Sequential: 3-33                            [1, 48, 256, 256]         9,360
│    └─MAQ: 2-8                                         [1, 48, 256, 256]         --
│    │    └─CrossAttentionTransformer: 3-34             [1, 48, 256, 256]         43,068
│    │    └─CrossAttentionTransformer: 3-35             [1, 48, 256, 256]         43,068
│    │    └─SelfAttentionTransformer: 3-36              [1, 48, 256, 256]         32,171
│    │    └─Sequential: 3-37                            [1, 192, 256, 256]        103,872
│    │    └─Sequential: 3-38                            [1, 48, 256, 256]         9,360
│    └─Aggreation: 2-9                                  [1, 48, 256, 256]         --
│    │    └─SelfAttention: 3-39                         [1, 144, 256, 256]        5,346
│    │    └─ConvLayer: 3-40                             [1, 48, 256, 256]         62,257
│    └─SPP: 2-10                                        [1, 6, 256, 256]          --
│    │    └─ModuleList: 3-41                            --                        9,412
│    │    └─ConvLayer: 3-42                             [1, 6, 256, 256]          12,967
├─ReflectionDetailRestorer: 1-3                         [1, 3, 256, 256]          --
│    └─ReflectionPatchEmbed: 2-11                       [1, 16, 256, 256]         --
│    │    └─ReflectionPad2d: 3-43                       [1, 3, 258, 258]          --
│    │    └─Conv2d: 3-44                                [1, 16, 256, 256]         432
│    └─QBlock: 2-12                                     [1, 16, 256, 256]         --
│    │    └─RCB: 3-45                                   [1, 16, 256, 256]         5,136
│    │    └─NAFBlock: 3-46                              [1, 16, 256, 256]         2,320
│    │    └─Sequential: 3-47                            [1, 64, 256, 256]         11,584
│    │    └─Sequential: 3-48                            [1, 16, 256, 256]         1,072
│    └─QBlock: 2-13                                     [1, 16, 256, 256]         --
│    │    └─RCB: 3-49                                   [1, 16, 256, 256]         5,136
│    │    └─NAFBlock: 3-50                              [1, 16, 256, 256]         2,320
│    │    └─Sequential: 3-51                            [1, 64, 256, 256]         11,584
│    │    └─Sequential: 3-52                            [1, 16, 256, 256]         1,072
│    └─Aggreation: 2-14                                 [1, 16, 256, 256]         --
│    │    └─SelfAttention: 3-53                         [1, 32, 256, 256]         292
│    │    └─ConvLayer: 3-54                             [1, 16, 256, 256]         4,625
│    └─QBlock: 2-15                                     [1, 16, 256, 256]         --
│    │    └─RCB: 3-55                                   [1, 16, 256, 256]         5,136
│    │    └─NAFBlock: 3-56                              [1, 16, 256, 256]         2,320
│    │    └─Sequential: 3-57                            [1, 64, 256, 256]         11,584
│    │    └─Sequential: 3-58                            [1, 16, 256, 256]         1,072
│    └─QBlock: 2-16                                     [1, 16, 256, 256]         --
│    │    └─RCB: 3-59                                   [1, 16, 256, 256]         5,136
│    │    └─NAFBlock: 3-60                              [1, 16, 256, 256]         2,320
│    │    └─Sequential: 3-61                            [1, 64, 256, 256]         11,584
│    │    └─Sequential: 3-62                            [1, 16, 256, 256]         1,072
│    └─Aggreation: 2-17                                 [1, 16, 256, 256]         --
│    │    └─SelfAttention: 3-63                         [1, 48, 256, 256]         630
│    │    └─ConvLayer: 3-64                             [1, 16, 256, 256]         6,929
│    └─QBlock: 2-18                                     [1, 16, 256, 256]         --
│    │    └─RCB: 3-65                                   [1, 16, 256, 256]         5,136
│    │    └─NAFBlock: 3-66                              [1, 16, 256, 256]         2,320
│    │    └─Sequential: 3-67                            [1, 64, 256, 256]         11,584
│    │    └─Sequential: 3-68                            [1, 16, 256, 256]         1,072
│    └─QBlock: 2-19                                     [1, 16, 256, 256]         --
│    │    └─RCB: 3-69                                   [1, 16, 256, 256]         5,136
│    │    └─NAFBlock: 3-70                              [1, 16, 256, 256]         2,320
│    │    └─Sequential: 3-71                            [1, 64, 256, 256]         11,584
│    │    └─Sequential: 3-72                            [1, 16, 256, 256]         1,072
│    └─Aggreation: 2-20                                 [1, 16, 256, 256]         --
│    │    └─SelfAttention: 3-73                         [1, 64, 256, 256]         1,096
│    │    └─ConvLayer: 3-74                             [1, 16, 256, 256]         9,233
│    └─SPP: 2-21                                        [1, 3, 256, 256]          --
│    │    └─ModuleList: 3-75                            --                        1,092
│    │    └─ConvLayer: 3-76                             [1, 3, 256, 256]          2,164
├─Sequential: 1-4                                       [1, 3, 256, 256]          --
│    └─Conv2d: 2-22                                     [1, 3, 256, 256]          246
│    └─Sigmoid: 2-23                                    [1, 3, 256, 256]          --
=========================================================================================================
Total params: 1,224,060
Trainable params: 1,127,292
Non-trainable params: 96,768
Total mult-adds (G): 45.77
=========================================================================================================
Input size (MB): 0.79
Forward/backward pass size (MB): 9380.37
Params size (MB): 4.84
…
