…
  TRAIN_DIR: ./image_dirs/UIEB/train
  VAL_AFTER_EVERY: 1
  VAL_DIR: ./image_dirs/UIEB/val
  WEIGHT: 
VERBOSE: True
WANDB:
  
==================================================
Model Detailed Summary:
--------------------------------------------------
=========================================================================================================
Layer (type:depth-idx)                                  Output Shape              Param #
=========================================================================================================
EdgeModel_V3                                            [1, 3, 256, 256]          --
├─ColorBalancePrior: 1-1                                [1, 3, 256, 256]          --
│    └─NAFBlock: 2-1                                    [1, 3, 256, 256]          6
│    │    └─LayerNorm2d: 3-1                            [1, 3, 256, 256]          6
│    │    └─Conv2d: 3-2                                 [1, 6, 256, 256]          24
│    │    └─Conv2d: 3-3                                 [1, 6, 256, 256]          60
│    │    └─SimpleGate: 3-4                             [1, 3, 256, 256]          --
│    │    └─Sequential: 3-5                             [1, 3, 1, 1]              12
│    │    └─Conv2d: 3-6                                 [1, 3, 256, 256]          12
│    │    └─Identity: 3-7                               [1, 3, 256, 256]          --
│    │    └─LayerNorm2d: 3-8                            [1, 3, 256, 256]          6
│    │    └─Conv2d: 3-9                                 [1, 6, 256, 256]          24
│    │    └─SimpleGate: 3-10                            [1, 3, 256, 256]          --
│    │    └─Conv2d: 3-11                                [1, 3, 256, 256]          12
│    │    └─Identity: 3-12                              [1, 3, 256, 256]          --
├─ReflectionFeatureContextualizer: 1-2                  [1, 6, 256, 256]          --
│    └─ReflectionPatchEmbed: 2-2                        [1, 48, 256, 256]         --
│    │    └─ReflectionPad2d: 3-13                       [1, 3, 258, 258]          --
│    │    └─Conv2d: 3-14                                [1, 48, 256, 256]         1,296
│    └─ReflectionPatchEmbed: 2-3                        [1, 48, 256, 256]         --
│    │    └─ReflectionPad2d: 3-15                       [1, 3, 258, 258]          --
│    │    └─Conv2d: 3-16                                [1, 48, 256, 256]         1,296
│    └─SCEdgeDetectionModule: 2-4                       [1, 48, 256, 256]         --
│    │    └─Conv2d: 3-17                                [1, 48, 256, 256]         432
│    │    └─Conv2d: 3-18                                [1, 48, 256, 256]         432
│    │    └─Conv2d: 3-19                                [1, 48, 256, 256]         432
│    │    └─Sequential: 3-20                            [1, 48, 256, 256]         6,960
│    └─MAQ: 2-5                                         [1, 48, 256, 256]         --
│    │    └─CrossAttentionTransformer: 3-21             [1, 48, 256, 256]         43,068
│    │    └─CrossAttentionTransformer: 3-22             [1, 48, 256, 256]         43,068
│    │    └─SelfAttentionTransformer: 3-23              [1, 48, 256, 256]         32,171
│    │    └─Sequential: 3-24                            [1, 192, 256, 256]        103,872
│    │    └─Sequential: 3-25                            [1, 48, 256, 256]         9,360
│    └─MAQ: 2-6                                         [1, 48, 256, 256]         --
│    │    └─CrossAttentionTransformer: 3-26             [1, 48, 256, 256]         43,068
│    │    └─CrossAttentionTransformer: 3-27             [1, 48, 256, 256]         43,068
│    │    └─SelfAttentionTransformer: 3-28              [1, 48, 256, 256]         32,171
│    │    └─Sequential: 3-29                            [1, 192, 256, 256]        103,872
│    │    └─Sequential: 3-30                            [1, 48, 256, 256]         9,360
│    └─Aggreation: 2-7                                  [1, 48, 256, 256]         --
│    │    └─SelfAttention: 3-31                         [1, 96, 256, 256]         2,412
│    │    └─ConvLayer: 3-32                             [1, 48, 256, 256]         41,521
│    └─MAQ: 2-8                                         [1, 48, 256, 256]         --
│    │    └─CrossAttentionTransformer: 3-33             [1, 48, 256, 256]         43,068
│    │    └─CrossAttentionTransformer: 3-34             [1, 48, 256, 256]         43,068
│    │    └─SelfAttentionTransformer: 3-35              [1, 48, 256, 256]         32,171
│    │    └─Sequential: 3-36                            [1, 192, 256, 256]        103,872
│    │    └─Sequential: 3-37                            [1, 48, 256, 256]         9,360
│    └─MAQ: 2-9                                         [1, 48, 256, 256]         --
│    │    └─CrossAttentionTransformer: 3-38             [1, 48, 256, 256]         43,068
│    │    └─CrossAttentionTransformer: 3-39             [1, 48, 256, 256]         43,068
│    │    └─SelfAttentionTransformer: 3-40              [1, 48, 256, 256]         32,171
│    │    └─Sequential: 3-41                            [1, 192, 256, 256]        103,872
│    │    └─Sequential: 3-42                            [1, 48, 256, 256]         9,360
│    └─Aggreation: 2-10                                 [1, 48, 256, 256]         --
│    │    └─SelfAttention: 3-43                         [1, 144, 256, 256]        5,346
│    │    └─ConvLayer: 3-44                             [1, 48, 256, 256]         62,257
│    └─SPP: 2-11                                        [1, 6, 256, 256]          --
│    │    └─ModuleList: 3-45                            --                        9,412
│    │    └─ConvLayer: 3-46                             [1, 6, 256, 256]          12,967
├─ReflectionDetailRestorer: 1-3                         [1, 3, 256, 256]          --
│    └─ReflectionPatchEmbed: 2-12                       [1, 16, 256, 256]         --
│    │    └─ReflectionPad2d: 3-47                       [1, 3, 258, 258]          --
│    │    └─Conv2d: 3-48                                [1, 16, 256, 256]         432
│    └─SCEdgeDetectionModule: 2-13                      [1, 16, 256, 256]         --
│    │    └─Conv2d: 3-49                                [1, 16, 256, 256]         144
│    │    └─Conv2d: 3-50                                [1, 16, 256, 256]         144
│    │    └─Conv2d: 3-51                                [1, 16, 256, 256]         144
│    │    └─Sequential: 3-52                            [1, 16, 256, 256]         784
│    └─QBlock: 2-14                                     [1, 16, 256, 256]         --
│    │    └─RCB: 3-53                                   [1, 16, 256, 256]         5,136
│    │    └─NAFBlock: 3-54                              [1, 16, 256, 256]         2,320
│    │    └─Sequential: 3-55                            [1, 64, 256, 256]         11,584
│    │    └─Sequential: 3-56                            [1, 16, 256, 256]         1,072
│    └─QBlock: 2-15                                     [1, 16, 256, 256]         --
│    │    └─RCB: 3-57                                   [1, 16, 256, 256]         5,136
│    │    └─NAFBlock: 3-58                              [1, 16, 256, 256]         2,320
│    │    └─Sequential: 3-59                            [1, 64, 256, 256]         11,584
│    │    └─Sequential: 3-60                            [1, 16, 256, 256]         1,072
│    └─Aggreation: 2-16                                 [1, 16, 256, 256]         --
│    │    └─SelfAttention: 3-61                         [1, 32, 256, 256]         292
│    │    └─ConvLayer: 3-62                             [1, 16, 256, 256]         4,625
│    └─QBlock: 2-17                                     [1, 16, 256, 256]         --
│    │    └─RCB: 3-63                                   [1, 16, 256, 256]         5,136
│    │    └─NAFBlock: 3-64                              [1, 16, 256, 256]         2,320
│    │    └─Sequential: 3-65                            [1, 64, 256, 256]         11,584
│    │    └─Sequential: 3-66                            [1, 16, 256, 256]         1,072
│    └─QBlock: 2-18                                     [1, 16, 256, 256]         --
│    │    └─RCB: 3-67                                   [1, 16, 256, 256]         5,136
│    │    └─NAFBlock: 3-68                              [1, 16, 256, 256]         2,320
│    │    └─Sequential: 3-69                            [1, 64, 256, 256]         11,584
│    │    └─Sequential: 3-70                            [1, 16, 256, 256]         1,072
│    └─Aggreation: 2-19                                 [1, 16, 256, 256]         --
│    │    └─SelfAttention: 3-71                         [1, 48, 256, 256]         630
│    │    └─ConvLayer: 3-72                             [1, 16, 256, 256]         6,929
│    └─QBlock: 2-20                                     [1, 16, 256, 256]         --
│    │    └─RCB: 3-73                                   [1, 16, 256, 256]         5,136
│    │    └─NAFBlock: 3-74                              [1, 16, 256, 256]         2,320
│    │    └─Sequential: 3-75                            [1, 64, 256, 256]         11,584
│    │    └─Sequential: 3-76                            [1, 16, 256, 256]         1,072
│    └─QBlock: 2-21                                     [1, 16, 256, 256]         --
│    │    └─RCB: 3-77                                   [1, 16, 256, 256]         5,136
│    │    └─NAFBlock: 3-78                              [1, 16, 256, 256]         2,320
│    │    └─Sequential: 3-79                            [1, 64, 256, 256]         11,584
│    │    └─Sequential: 3-80                            [1, 16, 256, 256]         1,072
│    └─Aggreation: 2-22                                 [1, 16, 256, 256]         --
│    │    └─SelfAttention: 3-81                         [1, 64, 256, 256]         1,096
│    │    └─ConvLayer: 3-82                             [1, 16, 256, 256]         9,233
│    └─SPP: 2-23                                        [1, 3, 256, 256]          --
│    │    └─ModuleList: 3-83                            --                        1,092
│    │    └─ConvLayer: 3-84                             [1, 3, 256, 256]          2,164
├─Sequential: 1-4                                       [1, 3, 256, 256]          --
│    └─Conv2d: 2-24                                     [1, 3, 256, 256]          246
│    └─Sigmoid: 2-25                                    [1, 3, 256, 256]          --
=========================================================================================================
Total params: 1,233,532
Trainable params: 1,136,764
Non-trainable params: 96,768
Total mult-adds (G): 46.39
=========================================================================================================
Input size (MB): 0.79
Forward/backward pass size (MB): 9514.59
Params size (MB): 4.88
…
