===============================================================================================
Layer (type:depth-idx)                        Output Shape              Param #
===============================================================================================
WaveletModel                                  [1, 3, 256, 256]          --
├─MultiStageColorPrior: 1-1                   [1, 3, 256, 256]          --
│    └─Sequential: 2-1                        [1, 3]                    --
│    │    └─Linear: 3-1                       [1, 16]                   64
│    │    └─ReLU: 3-2                         [1, 16]                   --
│    │    └─Linear: 3-3                       [1, 3]                    51
│    └─ColorUNet: 2-2                         [1, 3, 256, 256]          --
│    │    └─Sequential: 3-4                   [1, 16, 256, 256]         2,768
│    │    └─MaxPool2d: 3-5                    [1, 16, 128, 128]         --
│    │    └─Sequential: 3-6                   [1, 32, 128, 128]         13,888
│    │    └─MaxPool2d: 3-7                    [1, 32, 64, 64]           --
│    │    └─Sequential: 3-8                   [1, 64, 64, 64]           55,424
│    │    └─ConvTranspose2d: 3-9              [1, 32, 128, 128]         8,224
│    │    └─Sequential: 3-10                  [1, 32, 128, 128]         27,712
│    │    └─ConvTranspose2d: 3-11             [1, 16, 256, 256]         2,064
│    │    └─Sequential: 3-12                  [1, 16, 256, 256]         6,944
│    │    └─Conv2d: 3-13                      [1, 3, 256, 256]          51
├─WaveletFFTDecomposition: 1-2                [1, 3, 128, 128]          --
│    └─DWTForward: 2-3                        [1, 3, 128, 128]          --
├─SubBandAttention: 1-3                       [1, 3, 128, 128]          3
├─LowResWaveletPath: 1-4                      [1, 3, 128, 128]          --
│    └─Conv2d: 2-4                            [1, 16, 128, 128]         448
│    └─ReLU: 2-5                              [1, 16, 128, 128]         --
│    └─Conv2d: 2-6                            [1, 3, 128, 128]          435
│    └─InstanceNorm2d: 2-7                    [1, 3, 128, 128]          6
├─LowResWaveletPath: 1-5                      [1, 3, 128, 128]          (recursive)
│    └─Conv2d: 2-8                            [1, 16, 128, 128]         (recursive)
│    └─ReLU: 2-9                              [1, 16, 128, 128]         --
│    └─Conv2d: 2-10                           [1, 3, 128, 128]          (recursive)
│    └─InstanceNorm2d: 2-11                   [1, 3, 128, 128]          (recursive)
├─LowResWaveletPath: 1-6                      [1, 3, 128, 128]          (recursive)
│    └─Conv2d: 2-12                           [1, 16, 128, 128]         (recursive)
│    └─ReLU: 2-13                             [1, 16, 128, 128]         --
│    └─Conv2d: 2-14                           [1, 3, 128, 128]          (recursive)
│    └─InstanceNorm2d: 2-15                   [1, 3, 128, 128]          (recursive)
├─FFTBranch: 1-7                              [1, 6, 256, 256]          --
│    └─Sequential: 2-16                       [1, 3, 256, 256]          --
│    │    └─Conv2d: 3-14                      [1, 16, 256, 256]         448
│    │    └─ReLU: 3-15                        [1, 16, 256, 256]         --
│    │    └─Conv2d: 3-16                      [1, 3, 256, 256]          435
│    └─Sequential: 2-17                       [1, 3, 256, 256]          --
│    │    └─Conv2d: 3-17                      [1, 16, 256, 256]         448
│    │    └─ReLU: 3-18                        [1, 16, 256, 256]         --
│    │    └─Conv2d: 3-19                      [1, 3, 256, 256]          435
│    └─Conv2d: 2-18                           [1, 6, 256, 256]          42
├─SimpleQuaternionFeatureExtractor: 1-8       [1, 32, 256, 256]         --
│    └─Conv2d: 2-19                           [1, 4, 256, 256]          12
│    └─QuaternionConv: 2-20                   [1, 32, 256, 256]         320
│    └─InstanceNorm2d: 2-21                   [1, 32, 256, 256]         64
│    └─ReLU: 2-22                             [1, 32, 256, 256]         --
│    └─QuaternionConv: 2-23                   [1, 32, 256, 256]         2,336
│    └─InstanceNorm2d: 2-24                   [1, 32, 256, 256]         64
│    └─ReLU: 2-25                             [1, 32, 256, 256]         --
├─Conv2d: 1-9                                 [1, 32, 256, 256]         96
├─CrossAttentionBlock: 1-10                   [1, 32, 256, 256]         --
│    └─InstanceNorm2d: 2-26                   [1, 32, 256, 256]         64
│    └─InstanceNorm2d: 2-27                   [1, 32, 256, 256]         64
│    └─CrossAttention: 2-28                   [1, 32, 256, 256]         2
│    │    └─Conv2d: 3-20                      [1, 64, 256, 256]         2,112
│    │    └─Conv2d: 3-21                      [1, 32, 256, 256]         1,056
│    │    └─Conv2d: 3-22                      [1, 32, 256, 256]         1,056
│    └─FeedForward: 2-29                      [1, 32, 256, 256]         --
│    │    └─Conv2d: 3-23                      [1, 64, 256, 256]         2,112
│    │    └─Conv2d: 3-24                      [1, 64, 256, 256]         640
│    │    └─Conv2d: 3-25                      [1, 32, 256, 256]         2,080
├─Conv2d: 1-11                                [1, 32, 256, 256]         576
├─CrossAttentionBlock: 1-12                   [1, 32, 256, 256]         --
│    └─InstanceNorm2d: 2-30                   [1, 32, 256, 256]         64
│    └─InstanceNorm2d: 2-31                   [1, 32, 256, 256]         64
│    └─CrossAttention: 2-32                   [1, 32, 256, 256]         2
│    │    └─Conv2d: 3-26                      [1, 64, 256, 256]         2,112
│    │    └─Conv2d: 3-27                      [1, 32, 256, 256]         1,056
│    │    └─Conv2d: 3-28                      [1, 32, 256, 256]         1,056
│    └─FeedForward: 2-33                      [1, 32, 256, 256]         --
│    │    └─Conv2d: 3-29                      [1, 64, 256, 256]         2,112
│    │    └─Conv2d: 3-30                      [1, 64, 256, 256]         640
│    │    └─Conv2d: 3-31                      [1, 32, 256, 256]         2,080
├─DeeperDetailRestorer: 1-13                  [1, 32, 256, 256]         --
│    └─ModuleList: 2-34                       --                        --
│    │    └─QBlock: 3-32                      [1, 32, 256, 256]         4,736
│    │    └─QBlock: 3-33                      [1, 32, 256, 256]         4,736
│    │    └─QBlock: 3-34                      [1, 32, 256, 256]         4,736
│    └─ReLU: 2-35                             [1, 32, 256, 256]         --
├─SPP: 1-14                                   [1, 32, 256, 256]         --
│    └─ModuleList: 2-36                       --                        --
│    │    └─Conv2d: 3-35                      [1, 32, 128, 128]         1,024
│    │    └─Conv2d: 3-36                      [1, 32, 64, 64]           1,024
│    │    └─Conv2d: 3-37                      [1, 32, 32, 32]           1,024
│    └─Conv2d: 2-37                           [1, 32, 256, 256]         36,864
├─Conv2d: 1-15                                [1, 3, 256, 256]          867
├─FinalScaleShift: 1-16                       [1, 3, 256, 256]          6
===============================================================================================
Total params: 196,747
Trainable params: 196,747
Non-trainable params: 0
Total mult-adds (G): 5.72
===============================================================================================
Input size (MB): 0.79
Forward/backward pass size (MB): 749.08
Params size (MB): 0.79
Estimated Total Size (MB): 750.65
…
