…
  TRAIN_DIR: ./image_dirs/EVUP/train
  VAL_AFTER_EVERY: 1
  VAL_DIR: ./image_dirs/EVUP/val
  WEIGHT: 
VERBOSE: True
WANDB:
  
==================================================
Model Detailed Summary:
--------------------------------------------------
==============================================================================================================
Layer (type:depth-idx)                                       Output Shape              Param #
==============================================================================================================
Model                                                        [1, 3, 256, 256]          --
├─ColorBalancePrior: 1-1                                     [1, 3, 256, 256]          --
│    └─NAFBlock: 2-1                                         [1, 3, 256, 256]          6
│    │    └─LayerNorm2d: 3-1                                 [1, 3, 256, 256]          6
│    │    └─Conv2d: 3-2                                      [1, 6, 256, 256]          24
│    │    └─Conv2d: 3-3                                      [1, 6, 256, 256]          60
│    │    └─SimpleGate: 3-4                                  [1, 3, 256, 256]          --
│    │    └─Sequential: 3-5                                  [1, 3, 1, 1]              12
│    │    └─Conv2d: 3-6                                      [1, 3, 256, 256]          12
│    │    └─Identity: 3-7                                    [1, 3, 256, 256]          --
│    │    └─LayerNorm2d: 3-8                                 [1, 3, 256, 256]          6
│    │    └─Conv2d: 3-9                                      [1, 6, 256, 256]          24
│    │    └─SimpleGate: 3-10                                 [1, 3, 256, 256]          --
│    │    └─Conv2d: 3-11                                     [1, 3, 256, 256]          12
│    │    └─Identity: 3-12                                   [1, 3, 256, 256]          --
├─PriorGuidedRE: 1-2                                         [1, 3, 256, 256]          --
│    └─ModuleList: 2-7                                       --                        (recursive)
│    │    └─DetailRestorer: 3-13                             [1, 3, 256, 256]          147,165
│    └─ModuleList: 2-6                                       --                        (recursive)
│    │    └─Conv2d: 3-14                                     [1, 6, 128, 128]          78
│    └─ModuleList: 2-7                                       --                        (recursive)
│    │    └─DetailRestorer: 3-15                             [1, 6, 128, 128]          149,760
│    └─ModuleList: 2-8                                       --                        (recursive)
│    │    └─Conv2d: 3-16                                     [1, 6, 128, 128]          78
│    └─ModuleList: 2-6                                       --                        (recursive)
│    │    └─Conv2d: 3-17                                     [1, 12, 64, 64]           300
│    └─ModuleList: 2-7                                       --                        (recursive)
│    │    └─DetailRestorer: 3-18                             [1, 12, 64, 64]           154,950
│    └─ModuleList: 2-8                                       --                        (recursive)
│    │    └─Conv2d: 3-19                                     [1, 12, 64, 64]           300
│    └─FeatureContextualizer: 2-9                            [1, 24, 64, 64]           --
│    │    └─OverlapPatchEmbed: 3-20                          [1, 48, 64, 64]           5,184
│    │    └─OverlapPatchEmbed: 3-21                          [1, 48, 64, 64]           5,184
│    │    └─MAQ: 3-22                                        [1, 48, 64, 64]           231,539
│    │    └─MAQ: 3-23                                        [1, 48, 64, 64]           231,539
│    │    └─Aggreation: 3-24                                 [1, 48, 64, 64]           43,933
│    │    └─MAQ: 3-25                                        [1, 48, 64, 64]           231,539
│    │    └─MAQ: 3-26                                        [1, 48, 64, 64]           231,539
│    │    └─Aggreation: 3-27                                 [1, 48, 64, 64]           67,603
│    │    └─SPP: 3-28                                        [1, 24, 64, 64]           61,277
│    └─ModuleList: 2-14                                      --                        (recursive)
│    │    └─ScaleHarmonizer: 3-29                            [1, 12, 64, 64]           71,940
│    └─ModuleList: 2-13                                      --                        (recursive)
│    │    └─Sequential: 3-30                                 [1, 6, 128, 128]          288
│    └─ModuleList: 2-14                                      --                        (recursive)
│    │    └─ScaleHarmonizer: 3-31                            [1, 6, 128, 128]          51,570
│    └─ModuleList: 2-13                                      --                        (recursive)
│    │    └─Sequential: 3-32                                 [1, 3, 256, 256]          72
│    └─ModuleList: 2-14                                      --                        (recursive)
│    │    └─ScaleHarmonizer: 3-33                            [1, 3, 256, 256]          41,385
│    └─ScaleHarmonizer: 2-15                                 [1, 3, 256, 256]          --
│    │    └─Condition: 3-34                                  [1, 32]                   32,640
│    │    └─Linear: 3-35                                     [1, 64]                   2,112
│    │    └─Linear: 3-36                                     [1, 64]                   2,112
│    │    └─Linear: 3-37                                     [1, 64]                   2,112
│    │    └─Linear: 3-38                                     [1, 64]                   2,112
│    │    └─Linear: 3-39                                     [1, 3]                    99
│    │    └─Linear: 3-40                                     [1, 3]                    99
│    │    └─Conv2d: 3-41                                     [1, 64, 256, 256]         640
│    │    └─ReLU: 3-42                                       [1, 64, 256, 256]         --
│    │    └─Conv2d: 3-43                                     [1, 64, 256, 256]         4,160
│    │    └─ReLU: 3-44                                       [1, 64, 256, 256]         --
│    │    └─Conv2d: 3-45                                     [1, 3, 256, 256]          195
│    └─Sigmoid: 2-16                                         [1, 3, 256, 256]          --
==============================================================================================================
Total params: 1,815,138
Trainable params: 1,690,722
Non-trainable params: 124,416
Total mult-adds (G): 10.25
==============================================================================================================
Input size (MB): 0.79
Forward/backward pass size (MB): 1995.48
Params size (MB): 7.09
…
